GatedResnetConvResnetG (
  (main_initial): Sequential (
    (0): ConvTranspose2d(62, 64, kernel_size=(1, 1), stride=(1, 1), bias=False)
    (1): BatchNorm2d(64, eps=1e-05, momentum=0.1, affine=True)
    (2): ReLU (inplace)
    (3): ConvTranspose2d(64, 32, kernel_size=(7, 7), stride=(1, 1), bias=False)
    (4): BatchNorm2d(32, eps=1e-05, momentum=0.1, affine=True)
    (5): ReLU (inplace)
    (6): ConvTranspose2d(32, 32, kernel_size=(4, 4), stride=(2, 2), padding=(1, 1), bias=False)
    (7): BatchNorm2d(32, eps=1e-05, momentum=0.1, affine=True)
    (8): ReLU (inplace)
    (9): ConvTranspose2d(32, 16, kernel_size=(4, 4), stride=(2, 2), padding=(1, 1), bias=False)
  )
  (main): Sequential (
    (0): GatedConvResBlock (
      (model): Sequential (
        (0): Conv2d(16, 16, kernel_size=(3, 3), stride=(1, 1), padding=(1, 1))
        (1): ReLU (inplace)
        (2): Conv2d(16, 16, kernel_size=(3, 3), stride=(1, 1), padding=(1, 1))
        (3): Dropout (p = 0.5)
      )
    )
    (1): GatedConvResBlock (
      (model): Sequential (
        (0): Conv2d(16, 16, kernel_size=(3, 3), stride=(1, 1), padding=(1, 1))
        (1): ReLU (inplace)
        (2): Conv2d(16, 16, kernel_size=(3, 3), stride=(1, 1), padding=(1, 1))
        (3): Dropout (p = 0.5)
      )
    )
    (2): GatedConvResBlock (
      (model): Sequential (
        (0): Conv2d(16, 16, kernel_size=(3, 3), stride=(1, 1), padding=(1, 1))
        (1): ReLU (inplace)
        (2): Conv2d(16, 16, kernel_size=(3, 3), stride=(1, 1), padding=(1, 1))
        (3): Dropout (p = 0.5)
      )
    )
    (3): GatedConvResBlock (
      (model): Sequential (
        (0): Conv2d(16, 16, kernel_size=(3, 3), stride=(1, 1), padding=(1, 1))
        (1): ReLU (inplace)
        (2): Conv2d(16, 16, kernel_size=(3, 3), stride=(1, 1), padding=(1, 1))
        (3): Dropout (p = 0.5)
      )
    )
    (4): GatedConvResBlock (
      (model): Sequential (
        (0): Conv2d(16, 16, kernel_size=(3, 3), stride=(1, 1), padding=(1, 1))
        (1): ReLU (inplace)
        (2): Conv2d(16, 16, kernel_size=(3, 3), stride=(1, 1), padding=(1, 1))
        (3): Dropout (p = 0.5)
      )
    )
    (5): GatedConvResBlock (
      (model): Sequential (
        (0): Conv2d(16, 16, kernel_size=(3, 3), stride=(1, 1), padding=(1, 1))
        (1): ReLU (inplace)
        (2): Conv2d(16, 16, kernel_size=(3, 3), stride=(1, 1), padding=(1, 1))
        (3): Dropout (p = 0.5)
      )
    )
    (6): GatedConvResBlock (
      (model): Sequential (
        (0): Conv2d(16, 16, kernel_size=(3, 3), stride=(1, 1), padding=(1, 1))
        (1): ReLU (inplace)
        (2): Conv2d(16, 16, kernel_size=(3, 3), stride=(1, 1), padding=(1, 1))
        (3): Dropout (p = 0.5)
      )
    )
    (7): GatedConvResBlock (
      (model): Sequential (
        (0): Conv2d(16, 16, kernel_size=(3, 3), stride=(1, 1), padding=(1, 1))
        (1): ReLU (inplace)
        (2): Conv2d(16, 16, kernel_size=(3, 3), stride=(1, 1), padding=(1, 1))
        (3): Dropout (p = 0.5)
      )
    )
    (8): GatedConvResBlock (
      (model): Sequential (
        (0): Conv2d(16, 16, kernel_size=(3, 3), stride=(1, 1), padding=(1, 1))
        (1): ReLU (inplace)
        (2): Conv2d(16, 16, kernel_size=(3, 3), stride=(1, 1), padding=(1, 1))
        (3): Dropout (p = 0.5)
      )
    )
    (9): GatedConvResBlock (
      (model): Sequential (
        (0): Conv2d(16, 16, kernel_size=(3, 3), stride=(1, 1), padding=(1, 1))
        (1): ReLU (inplace)
        (2): Conv2d(16, 16, kernel_size=(3, 3), stride=(1, 1), padding=(1, 1))
        (3): Dropout (p = 0.5)
      )
    )
    (10): GatedConvResBlock (
      (model): Sequential (
        (0): Conv2d(16, 16, kernel_size=(3, 3), stride=(1, 1), padding=(1, 1))
        (1): ReLU (inplace)
        (2): Conv2d(16, 16, kernel_size=(3, 3), stride=(1, 1), padding=(1, 1))
        (3): Dropout (p = 0.5)
      )
    )
    (11): GatedConvResBlock (
      (model): Sequential (
        (0): Conv2d(16, 16, kernel_size=(3, 3), stride=(1, 1), padding=(1, 1))
        (1): ReLU (inplace)
        (2): Conv2d(16, 16, kernel_size=(3, 3), stride=(1, 1), padding=(1, 1))
        (3): Dropout (p = 0.5)
      )
    )
    (12): GatedConvResBlock (
      (model): Sequential (
        (0): Conv2d(16, 16, kernel_size=(3, 3), stride=(1, 1), padding=(1, 1))
        (1): ReLU (inplace)
        (2): Conv2d(16, 16, kernel_size=(3, 3), stride=(1, 1), padding=(1, 1))
        (3): Dropout (p = 0.5)
      )
    )
    (13): GatedConvResBlock (
      (model): Sequential (
        (0): Conv2d(16, 16, kernel_size=(3, 3), stride=(1, 1), padding=(1, 1))
        (1): ReLU (inplace)
        (2): Conv2d(16, 16, kernel_size=(3, 3), stride=(1, 1), padding=(1, 1))
        (3): Dropout (p = 0.5)
      )
    )
    (14): GatedConvResBlock (
      (model): Sequential (
        (0): Conv2d(16, 16, kernel_size=(3, 3), stride=(1, 1), padding=(1, 1))
        (1): ReLU (inplace)
        (2): Conv2d(16, 16, kernel_size=(3, 3), stride=(1, 1), padding=(1, 1))
        (3): Dropout (p = 0.5)
      )
    )
    (15): GatedConvResBlock (
      (model): Sequential (
        (0): Conv2d(16, 16, kernel_size=(3, 3), stride=(1, 1), padding=(1, 1))
        (1): ReLU (inplace)
        (2): Conv2d(16, 16, kernel_size=(3, 3), stride=(1, 1), padding=(1, 1))
        (3): Dropout (p = 0.5)
      )
    )
    (16): GatedConvResBlock (
      (model): Sequential (
        (0): Conv2d(16, 16, kernel_size=(3, 3), stride=(1, 1), padding=(1, 1))
        (1): ReLU (inplace)
        (2): Conv2d(16, 16, kernel_size=(3, 3), stride=(1, 1), padding=(1, 1))
        (3): Dropout (p = 0.5)
      )
    )
    (17): GatedConvResBlock (
      (model): Sequential (
        (0): Conv2d(16, 16, kernel_size=(3, 3), stride=(1, 1), padding=(1, 1))
        (1): ReLU (inplace)
        (2): Conv2d(16, 16, kernel_size=(3, 3), stride=(1, 1), padding=(1, 1))
        (3): Dropout (p = 0.5)
      )
    )
    (18): GatedConvResBlock (
      (model): Sequential (
        (0): Conv2d(16, 16, kernel_size=(3, 3), stride=(1, 1), padding=(1, 1))
        (1): ReLU (inplace)
        (2): Conv2d(16, 16, kernel_size=(3, 3), stride=(1, 1), padding=(1, 1))
        (3): Dropout (p = 0.5)
      )
    )
    (19): GatedConvResBlock (
      (model): Sequential (
        (0): Conv2d(16, 16, kernel_size=(3, 3), stride=(1, 1), padding=(1, 1))
        (1): ReLU (inplace)
        (2): Conv2d(16, 16, kernel_size=(3, 3), stride=(1, 1), padding=(1, 1))
        (3): Dropout (p = 0.5)
      )
    )
    (20): GatedConvResBlock (
      (model): Sequential (
        (0): Conv2d(16, 16, kernel_size=(3, 3), stride=(1, 1), padding=(1, 1))
        (1): ReLU (inplace)
        (2): Conv2d(16, 16, kernel_size=(3, 3), stride=(1, 1), padding=(1, 1))
        (3): Dropout (p = 0.5)
      )
    )
    (21): GatedConvResBlock (
      (model): Sequential (
        (0): Conv2d(16, 16, kernel_size=(3, 3), stride=(1, 1), padding=(1, 1))
        (1): ReLU (inplace)
        (2): Conv2d(16, 16, kernel_size=(3, 3), stride=(1, 1), padding=(1, 1))
        (3): Dropout (p = 0.5)
      )
    )
    (22): GatedConvResBlock (
      (model): Sequential (
        (0): Conv2d(16, 16, kernel_size=(3, 3), stride=(1, 1), padding=(1, 1))
        (1): ReLU (inplace)
        (2): Conv2d(16, 16, kernel_size=(3, 3), stride=(1, 1), padding=(1, 1))
        (3): Dropout (p = 0.5)
      )
    )
    (23): GatedConvResBlock (
      (model): Sequential (
        (0): Conv2d(16, 16, kernel_size=(3, 3), stride=(1, 1), padding=(1, 1))
        (1): ReLU (inplace)
        (2): Conv2d(16, 16, kernel_size=(3, 3), stride=(1, 1), padding=(1, 1))
        (3): Dropout (p = 0.5)
      )
    )
    (24): GatedConvResBlock (
      (model): Sequential (
        (0): Conv2d(16, 16, kernel_size=(3, 3), stride=(1, 1), padding=(1, 1))
        (1): ReLU (inplace)
        (2): Conv2d(16, 16, kernel_size=(3, 3), stride=(1, 1), padding=(1, 1))
        (3): Dropout (p = 0.5)
      )
    )
    (25): GatedConvResBlock (
      (model): Sequential (
        (0): Conv2d(16, 16, kernel_size=(3, 3), stride=(1, 1), padding=(1, 1))
        (1): ReLU (inplace)
        (2): Conv2d(16, 16, kernel_size=(3, 3), stride=(1, 1), padding=(1, 1))
        (3): Dropout (p = 0.5)
      )
    )
    (26): GatedConvResBlock (
      (model): Sequential (
        (0): Conv2d(16, 16, kernel_size=(3, 3), stride=(1, 1), padding=(1, 1))
        (1): ReLU (inplace)
        (2): Conv2d(16, 16, kernel_size=(3, 3), stride=(1, 1), padding=(1, 1))
        (3): Dropout (p = 0.5)
      )
    )
    (27): GatedConvResBlock (
      (model): Sequential (
        (0): Conv2d(16, 16, kernel_size=(3, 3), stride=(1, 1), padding=(1, 1))
        (1): ReLU (inplace)
        (2): Conv2d(16, 16, kernel_size=(3, 3), stride=(1, 1), padding=(1, 1))
        (3): Dropout (p = 0.5)
      )
    )
    (28): GatedConvResBlock (
      (model): Sequential (
        (0): Conv2d(16, 16, kernel_size=(3, 3), stride=(1, 1), padding=(1, 1))
        (1): ReLU (inplace)
        (2): Conv2d(16, 16, kernel_size=(3, 3), stride=(1, 1), padding=(1, 1))
        (3): Dropout (p = 0.5)
      )
    )
    (29): GatedConvResBlock (
      (model): Sequential (
        (0): Conv2d(16, 16, kernel_size=(3, 3), stride=(1, 1), padding=(1, 1))
        (1): ReLU (inplace)
        (2): Conv2d(16, 16, kernel_size=(3, 3), stride=(1, 1), padding=(1, 1))
        (3): Dropout (p = 0.5)
      )
    )
    (30): GatedConvResBlock (
      (model): Sequential (
        (0): Conv2d(16, 16, kernel_size=(3, 3), stride=(1, 1), padding=(1, 1))
        (1): ReLU (inplace)
        (2): Conv2d(16, 16, kernel_size=(3, 3), stride=(1, 1), padding=(1, 1))
        (3): Dropout (p = 0.5)
      )
    )
    (31): GatedConvResBlock (
      (model): Sequential (
        (0): Conv2d(16, 16, kernel_size=(3, 3), stride=(1, 1), padding=(1, 1))
        (1): ReLU (inplace)
        (2): Conv2d(16, 16, kernel_size=(3, 3), stride=(1, 1), padding=(1, 1))
        (3): Dropout (p = 0.5)
      )
    )
    (32): Conv2d(16, 1, kernel_size=(3, 3), stride=(1, 1), padding=(1, 1))
    (33): Tanh ()
  )
  (gate): Sequential (
    (0): Linear (12 -> 48)
    (1): ReLU ()
    (2): ResBlock (
      (model): Sequential (
        (0): Linear (48 -> 48)
        (1): ReLU (inplace)
        (2): Linear (48 -> 48)
        (3): Dropout (p = 0.5)
      )
    )
    (3): ResBlock (
      (model): Sequential (
        (0): Linear (48 -> 48)
…
      (model): Sequential (
        (0): Linear (48 -> 48)
        (1): ReLU (inplace)
        (2): Linear (48 -> 48)
        (3): Dropout (p = 0.5)
      )
    )
    (16): ResBlock (
      (model): Sequential (
        (0): Linear (48 -> 48)
        (1): ReLU (inplace)
        (2): Linear (48 -> 48)
        (3): Dropout (p = 0.5)
      )
    )
    (17): ResBlock (
      (model): Sequential (
        (0): Linear (48 -> 48)
        (1): ReLU (inplace)
        (2): Linear (48 -> 48)
        (3): Dropout (p = 0.5)
      )
    )
    (18): Linear (48 -> 32)
    (19): Softmax ()
  )
)
FrontEnd (
  (main): Sequential (
    (0): Conv2d(1, 64, kernel_size=(4, 4), stride=(2, 2), padding=(1, 1))
    (1): LeakyReLU (0.1, inplace)
    (2): Conv2d(64, 128, kernel_size=(4, 4), stride=(2, 2), padding=(1, 1), bias=False)
    (3): BatchNorm2d(128, eps=1e-05, momentum=0.1, affine=True)
    (4): LeakyReLU (0.1, inplace)
    (5): Conv2d(128, 1024, kernel_size=(7, 7), stride=(1, 1), bias=False)
    (6): BatchNorm2d(1024, eps=1e-05, momentum=0.1, affine=True)
    (7): LeakyReLU (0.1, inplace)
  )
)
D (
  (main): Sequential (
    (0): Conv2d(1024, 1, kernel_size=(1, 1), stride=(1, 1))
    (1): Sigmoid ()
  )
)
Q (
  (conv): Conv2d(1024, 128, kernel_size=(1, 1), stride=(1, 1), bias=False)
  (bn): BatchNorm2d(128, eps=1e-05, momentum=0.1, affine=True)
  (lReLU): LeakyReLU (0.1, inplace)
  (conv_disc): Conv2d(128, 10, kernel_size=(1, 1), stride=(1, 1))
  (conv_mu): Conv2d(128, 2, kernel_size=(1, 1), stride=(1, 1))
  (conv_var): Conv2d(128, 2, kernel_size=(1, 1), stride=(1, 1))
)
